models/Conv1D/temperature_model.tflite (tflite, 12056 bytes, 8 tensors)

arith.constant f4 [24]
0	0xbd5692a6	-0.05238595
1	0xbcf1b95e	-0.029507335
2	0x3ea0dfe5	0.31420818
3	0xbc887db1	-0.016661497
4	0x3ecbc99b	0.3980225
5	0x3ef87290	0.48524904
6	0xbca2a54c	-0.01985421
7	0xbcaff594	-0.021479405
8	0x3ede923f	0.43470952
9	0xbc949274	-0.01813624
10	0xbcb20173	-0.021729207
11	0x3f058243	0.5215189
12	0x3f0a12a3	0.5393469
13	0xbca69d81	-0.020338776
14	0x3ee19e3d	0.4406604
15	0xbc81836d	-0.015809739
16	0x3ea67f29	0.3251889
17	0xbca2e958	-0.019886658
18	0x3ea66208	0.32496667
19	0x3edbef67	0.42956087
20	0x3f02321f	0.5085773
21	0x3e9f58fd	0.3112258
22	0xbd319d8f	-0.04336315
23	0x3eb1bd47	0.3471472

arith.constant1 f4 [16]
0	0x3eddb497	0.43301842
1	0x3eeedfff	0.4665527
2	0x3f1fce88	0.62424517
3	0x3f147280	0.57987213
4	0xbd0bcf60	-0.034133315
5	0x3f079d59	0.5297447
6	0x3f023466	0.50861204
7	0xbf1a01a3	-0.6015875
8	0x3ef6bf3c	0.48192775
9	0x3f16b091	0.5886317
10	0x3f1b05b1	0.6055556
11	0xbd227065	-0.03965797
12	0x3ec4561f	0.38346955
13	0x3f121edf	0.57078356
14	0x3f232686	0.6373066
15	0x3f2e9e30	0.68210125

arith.constant2 f4 [24]
0	0x3e91d9c9	0.2848647
1	0x3e6587a5	0.22415026
2	0x3ebb69f8	0.36604285
3	0x3e918e8d	0.2842907
4	0x3ec0d46b	0.37662062
5	0x3e9800a2	0.29687983
6	0x3e88be2c	0.2670759
7	0x3e6dc3dd	0.23219247
8	0x3e7d4cf6	0.2473639
9	0x3e84d01f	0.25940034
10	0x3ea6d962	0.32587725
11	0x3e92d86b	0.2868074
12	0x3e8b0c85	0.2715799
13	0x3e901784	0.2814294
14	0x3ea6f948	0.32612062
15	0x3e8c1984	0.27363217
16	0x3e93a955	0.28840128
17	0x3e83d3e7	0.25747606
18	0xbe38549f	-0.1800103
19	0x3eca48de	0.39508718
20	0x3ea6801d	0.32519618
21	0x3e851d47	0.259989
22	0x3eb258b1	0.3483329
23	0x3ea19c8c	0.31564748

arith.constant3 f4 [3]
0	0x3ffabedc	1.9589496
1	0x4000a6ff	2.0101926
2	0x4001fdc2	2.0311131

arith.constant6 f4 [16, 1, 3, 24]
0	0x3dd4294b	0.103594385
1	0xbdf6cd43	-0.12050869
2	0x3e136c07	0.14396678
3	0x3d3ff8f8	0.046868294
4	0xbbd6f59c	-0.0065600406
5	0x3e662dff	0.22478484
6	0x3e308650	0.17238736
7	0xbd1733d6	-0.03691467
8	0xbd467cb5	-0.048458774
9	0xbd425e53	-0.047453236
10	0x3e39578b	0.18099801
11	0x3e2b9d2a	0.16759172
12	0xbc8fc43f	-0.017549632
13	0xbe09968c	-0.13436335
14	0xbdf4e150	-0.119570374
15	0x3bada365	0.005299019
16	0x3e141528	0.14461195
17	0x3d9b8a42	0.0759473
18	0xbdc6d302	-0.09708215
19	0x3df7df6b	0.121031605
20	0x3e700d60	0.23442602
21	0xbd5d74d2	-0.054066487
22	0x3e658c86	0.22416887
23	0xbbc86d53	-0.006116548
24	0x3e800664	0.25004876
25	0x3e32457e	0.17409322
26	0x3dadd054	0.08487001
27	0x3e08c18e	0.13355085
28	0x3e31e7d4	0.17373592
29	0x3e0abcf4	0.13548642
30	0xbdb3f732	-0.08787383
31	0xbdbc3d8b	-0.09191426
32	0xbe0ea4f8	-0.13930118
33	0x3dd27863	0.10276868
34	0x3e3a106d	0.18170328
35	0xbdee5598	-0.116374195
36	0xbe0eef9a	-0.13958588
37	0x3e822f0f	0.25426528
38	0xbddaaf11	-0.106779225
39	0x3e8cffa8	0.275388
40	0xbd73dabd	-0.059534777
41	0xbdbb33f5	-0.091407694
42	0x3cacecf8	0.02110909
43	0x3e917536	0.28409737
44	0xbd64c523	-0.055852067
45	0x3de8e037	0.113708906
46	0x3e660153	0.22461443
47	0xbda2eaec	-0.07954964
48	0xbdb9d825	-0.090744294
49	0x3c1a1bbf	0.009406029
50	0x3e906d07	0.2820818
51	0xbd9314f6	-0.07181732
52	0x3e27b478	0.16377437
53	0x3e87b891	0.26508
54	0xbc3d21a2	-0.011543663
55	0xbbe15a6f	-0.0068772356
56	0xbdde63a7	-0.10858851
57	0x3e256a24	0.1615377
58	0xbd31c285	-0.0433984
59	0x3dc4f9b0	0.096179366
60	0xbd3f18f1	-0.046654645
61	0x3c48cfab	0.012256543
62	0x3e17e3e2	0.14833024
63	0x3e7b1839	0.24520959
64	0x3d0aa1f6	0.033845864
65	0x3d4858ab	0.048912685
66	0xbde64524	-0.11243656
67	0x3cf7a235	0.030228714
68	0x3e774250	0.2414639
69	0x3e20d2c3	0.15705399
70	0x3e18b731	0.14913632
71	0x3dceb60d	0.10093317
72	0xbda407e0	-0.080093145
73	0x3dc68c73	0.09694757
74	0x3e91e7b4	0.28497088
75	0x3e48e443	0.19618325
76	0x3d55c32e	0.05218809
77	0x3e729aaf	0.2369182
78	0x3e2e9040	0.17047215
79	0x3dabdee2	0.08392121
80	0xbd913d7c	-0.07091805
81	0xbd3f8e31	-0.046766464
82	0xbce024ed	-0.027361358
83	0x3d4feaed	0.050761152
84	0x3db8476e	0.08997999
85	0x3d888ba4	0.06667259
86	0x3e8c1a55	0.2736384
87	0xbc4c8937	-0.012483886
88	0x3e7abaae	0.24485275
89	0xbd1b1148	-0.037858278
90	0xbe0acbec	-0.13554353
91	0x3db98291	0.09058107
92	0x3e50b5e5	0.20381887
93	0x3e4f760d	0.20259877
94	0x3e0cc9df	0.13748883
95	0xbc3e60b6	-0.011619737
96	0xbdd264c6	-0.10273127
97	0xbd659228	-0.05604759
98	0xbd80214d	-0.062563516
99	0x3e64c9e2	0.22342637
100	0x3e5e0bf0	0.21684241
101	0x3d4ad067	0.049515154
102	0x3d9aa984	0.07551864
103	0x3e864d70	0.26230955
104	0x3de600a6	0.112305924
105	0xba30a8d2	-0.00067390234
106	0xbe13eded	-0.1444623
107	0x3d3f1c81	0.046658043
108	0x3e12da05	0.1434098
109	0xbc3ee30b	-0.011650811
110	0x3de88191	0.11352838
111	0xbda691ab	-0.08133253
112	0x3e75e89c	0.24014515
113	0x3d10672f	0.035254654
114	0x3e1ea7ea	0.15493742
115	0xbdd9d2e8	-0.1063593
116	0x3e645f42	0.22301963
117	0xbe18a967	-0.14908372
118	0xbb1f6c16	-0.00243259
119	0xbcfa9803	-0.030590063
120	0x3e4a51b5	0.19757731
121	0x3e6a404a	0.22876087
122	0x3e166f92	0.14690998
123	0x3e518bc7	0.20463477
124	0xbd9eb5d4	-0.07749525
125	0x3d105cc4	0.03524472
126	0x3e89e90b	0.2693561
127	0xba5cc842	-0.0008422175
128	0xbc76d1cd	-0.015064669
129	0x3d541a8a	0.051783122
130	0xbc8fd9f5	-0.017559985
131	0x3e457c01	0.19285585
132	0x3e02ff88	0.1279279
133	0x3e2d4008	0.16918957
134	0x3e6b57d2	0.2298272
135	0x3d871813	0.06596389
136	0xbcb662ca	-0.022263903
137	0x3e314221	0.17310382
138	0x3c12ef15	0.008968134
139	0xbd93e339	-0.07221074
140	0x3e4efb0d	0.20212956
141	0x3d42ed0e	0.047589354
142	0x3d9f4516	0.07776849
143	0x3de21a23	0.110401414
144	0x3cc3b38f	0.023889331
145	0xbdce5db5	-0.10076467
146	0xbde08df0	-0.109645724
147	0x3e0634d7	0.13106094
148	0x3d819634	0.06327477
149	0xbda51203	-0.08060076
150	0xbdb0ecbb	-0.08638903
151	0x3caeb6ba	0.021327365
152	0x3dddb766	0.10825996
153	0xbcd150ce	-0.025551226
154	0x3e7c2e5b	0.24627058
155	0x3e8402ba	0.2578333
156	0x3aa86446	0.0012847267
157	0xbca04013	-0.019561803
158	0x3b37f064	0.0028066868
159	0xbd65c7ed	-0.056098867
160	0x3d9c263c	0.0762448
161	0xbcfb7b30	-0.030698389
162	0xbb9a06a6	-0.0047004996
163	0x3dc11895	0.09428517
164	0x3e752302	0.23939136
165	0xbd25f3f6	-0.040515862
166	0xbd4ac8bd	-0.049507845
167	0x3d0a911a	0.033829786
168	0xbe02509e	-0.12726066
169	0x3d9fd796	0.07804792
170	0x3d4ee893	0.05051477
171	0x3d315923	0.043297898
172	0x3e03e47f	0.12880133
173	0x3d937811	0.07200635
174	0xbcc7dbe9	-0.024396854
175	0x3d5e2b83	0.054240715
176	0x3e6dc1f4	0.23218518
177	0x3e927e97	0.28612205
178	0xbd780b72	-0.06055779
179	0x3da081db	0.07837268
180	0xbdbdd02f	-0.092682235
181	0xbd9d8dda	-0.07693072
182	0x3e55fc8b	0.20897119
183	0x3d073ba3	0.03301586
184	0xbd7300ab	-0.05932681
185	0xbd08c96b	-0.033395212
186	0x3d9e6aa2	0.07735182
187	0xbd81a788	-0.06330782
188	0xbda84fb8	-0.0821833
189	0x3e2fff0f	0.17187141
190	0x3da89eb0	0.08233392
191	0xbd3398f8	-0.043847054
192	0xbd89c8ec	-0.06727776
193	0x3e44f7ea	0.19235197
194	0x3e84d3c8	0.25942826
195	0xbd032c8d	-0.03202491
196	0xbd6963af	-0.05697983
197	0xbc5284d1	-0.012849049
198	0x3e5703d2	0.20997551
199	0xbd140f1a	-0.036147214
200	0xbce30efb	-0.027717104
201	0x3d9e1e91	0.07720674
202	0xbdb09afa	-0.086233094
203	0xbd87798d	-0.06614981
204	0x3e7eaf57	0.24871574
205	0xbd2391f7	-0.039934125
206	0x3c9148c1	0.017734887
207	0x3e306370	0.17225432
208	0x3c981c35	0.018568138
209	0x3dafe94e	0.08589421
210	0x3e130173	0.14356022
211	0x3e5b54ac	0.21419019
212	0xbd83016f	-0.06396758
213	0x3d2a9df3	0.04165454
214	0xbaecd5fe	-0.0018069146
215	0x3e7d3ac1	0.24729444
216	0x3ca9fee5	0.020751426
217	0x3e30c7d1	0.17263724
218	0x3e826df6	0.2547452
219	0x3e0832bf	0.13300608
220	0x3e4f3077	0.20233332
221	0x3dfd35b8	0.12363762
222	0x3ddc652c	0.107614845
223	0x3d985e31	0.074398406
224	0xbdc6bf71	-0.09704483
225	0x3d78f432	0.060779758
226	0x3e81de0e	0.25364727
227	0xbdb81ade	-0.089894995
228	0x3e7849ee	0.24246952
229	0x3cde835e	0.02716225
230	0x3e92609c	0.28589332
231	0x3da7ceef	0.08193766
232	0x3e367ab8	0.17820251
233	0x3d11dcfc	0.035611138
234	0xbe2ed100	-0.17071915
235	0x3d2af459	0.041736934
236	0xbd31f331	-0.043444816
237	0x3d90ee9d	0.07076762
238	0x3d66bee4	0.05633439
239	0x3d897f99	0.067137904
240	0x3e4ecb54	0.20194751
241	0xbd83224f	-0.06403028
242	0x3d3791ed	0.0448169
243	0xbcb27a36	-0.02178679
244	0x3e3e5c83	0.18589978
245	0x3da0e7a5	0.07856683
246	0x3e7217bb	0.23641865
247	0xbd14fccc	-0.0363739
248	0x3e8335b8	0.25626922
249	0x3dd3967d	0.10331438
250	0x3e3d5efe	0.18493268
251	0x3e293f46	0.16528043
252	0x3e770589	0.24123205
253	0xbb861bb6	-0.004092659
254	0x3af9a231	0.0019045529
255	0xbdb54f37	-0.08853

arith.constant7 f4 [24, 1, 3, 4]
0	0x3c7d5005	0.015460973
1	0xbe34e78a	-0.1766645
2	0xbe1e41bc	-0.15454763
3	0xbe5190c9	-0.20465387
4	0xbc93cfd2	-0.018043432
5	0x3e8a9de2	0.2707358
6	0x3df3c23b	0.11902281
7	0x3d97ac38	0.07405895
8	0x3e4e23f7	0.20130907
9	0xbe5e694a	-0.21719852
10	0xbe1e4b44	-0.15458399
11	0x3e102a4e	0.14078638
12	0x3e65935b	0.22419493
13	0xbc3236b8	-0.010877304
14	0x3d92efa7	0.07174616
15	0x3dfd0662	0.12354733
16	0xbe187019	-0.14886512
17	0x3e7a9987	0.24472629
18	0x3e519ba6	0.20469531
19	0xbdb717f2	-0.08940114
20	0xbcc4eb2b	-0.024037918
21	0xbe01877b	-0.12649338
22	0xbdf30b71	-0.11867417
23	0xbd151bed	-0.036403585
24	0xbb96beca	-0.0046003805
25	0x3cecf173	0.028923726
26	0xbe2197ed	-0.15780611
27	0xbe477763	-0.19479136
28	0x3d95433e	0.07288216
29	0x3e781db6	0.24230084
30	0x3cf78f34	0.030219652
31	0xbd941ee5	-0.07232455
32	0xbdf35d56	-0.11883037
33	0xbe1e3ff5	-0.15454085
34	0x3e9c9532	0.30582577
35	0x3e00dfa1	0.12585308
36	0x3e610b3f	0.21976946
37	0x3baf7200	0.005354166
38	0x3e01d2ef	0.12678121
39	0xbda2b791	-0.07945169
40	0xbe27f005	-0.16400154
41	0xbe0c2dee	-0.13689396
42	0xbd473b97	-0.048640814
43	0x3e441b0d	0.19150944
44	0xbcbaca7a	-0.022801626
45	0x3ddab048	0.10678154
46	0xbcf64a35	-0.030064682
47	0xbde25d87	-0.11052995
48	0x3e5ee616	0.21767458
49	0xbe38e119	-0.18054618
50	0xbdf64618	-0.12025088
51	0x3e0b61fe	0.136116
52	0x3e491600	0.19637299
53	0x3e230f4c	0.15923804
54	0x3dfa33e2	0.12216927
55	0x3d546573	0.051854562
56	0xbdfc1475	-0.12308589
57	0xbe0f2e42	-0.1398249
58	0xbe300972	-0.17191103
59	0x3b5954e6	0.0033162176
60	0xbe08154c	-0.13289374
61	0x3ca2242d	0.01979264
62	0xbe04f400	-0.12983704
63	0x3e080230	0.13282084
64	0x3e8328c6	0.25617045
65	0x3df8ab76	0.121420786
66	0x3e29ea6e	0.16593334
67	0xbe280aa3	-0.16410308
68	0xbb0cd4bb	-0.0021489102
69	0x3dfd3c5a	0.12365027
70	0x3e49a2e4	0.19691044
71	0x3c29f8c2	0.01037425
72	0xbdaba53d	-0.08381126
73	0x3e045375	0.12922461
74	0x3db0f21a	0.08639927
75	0x3df6e5ea	0.120555714
76	0x3e36b01c	0.17840618
77	0xbe06643e	-0.13124177
78	0xbe042866	-0.12906036
79	0x3d7dff40	0.062011003
80	0xbd8f6c75	-0.070031084
81	0xbe51abf6	-0.20475754
82	0xbdb61c0c	-0.08892068
83	0xbe3788ae	-0.17923233
84	0x3e30f47a	0.1728076
85	0x3de99754	0.11405817
86	0xbc901643	-0.01758874
87	0x3ba6fc39	0.0050959853
88	0x3de656d7	0.11247032
89	0xbd0c23b6	-0.034213744
90	0x3e63066e	0.22170421
91	0xbd33b2a6	-0.043871544
92	0xbe458070	-0.19287276
93	0xbd9fdfdf	-0.07806372
94	0xbe450159	-0.19238795
95	0x3d1400c0	0.036133528
96	0x3e42aceb	0.19011275
97	0xbdbbe74b	-0.09174975
98	0xbbfd57e7	-0.007731426
99	0x3ddd31b2	0.10800494
100	0xbe88c712	-0.2671438
101	0xbe29f88b	-0.16598718
102	0xbe03fdf1	-0.1288984
103	0x3d563635	0.05229779
104	0x3e4c7cab	0.19969432
105	0x3e93ac0c	0.288422
106	0x3e12d38c	0.14338511
107	0xbe2392fe	-0.15974042
108	0xbd245125	-0.040116448
109	0x3d4f429a	0.050600626
110	0xbccc74c6	-0.024958026
111	0xbe28a0d8	-0.16467607
112	0x3e05893b	0.1304063
113	0xbdf80e24	-0.12112072
114	0xbe2a2e59	-0.16619243
115	0xbd347a58	-0.04406199
116	0x3e0bbc15	0.13645966
117	0x3d563d68	0.052304655
118	0x3d53b974	0.051690534
119	0x3e59c75f	0.2126746
120	0xbe0d745c	-0.13813919
121	0xbe1b1653	-0.15145235
122	0x3e5077a8	0.20358145
123	0xbe2f8b5d	-0.17143007
124	0x3e294e34	0.16533738
125	0x3e06f605	0.13179787
126	0x3e0cdda4	0.13756424
127	0xbdea7235	-0.114475645
128	0xbe73afca	-0.23797527
129	0x3e50c860	0.20388937
130	0x3df6f4de	0.120584235
131	0x3e9380df	0.28809258
132	0xbd849db9	-0.06475396
133	0x3e5a8ad0	0.21342015
134	0xbdc4b70a	-0.096052244
135	0xbe8b2731	-0.27178338
136	0x3dde6ea0	0.10860944
137	0xbe2d721a	-0.16938058
138	0x3e9636e2	0.29338747
139	0x3d689405	0.056781787
140	0xbd5493a1	-0.051898602
141	0xbdcf8cff	-0.10134315
142	0xbe056613	-0.1302722
143	0x3e47bab1	0.19504811
144	0x3c0583b6	0.008149078
145	0x3e0b7710	0.13619637
146	0xbda1c3c6	-0.07898669
147	0xbe1aae62	-0.15105584
148	0xbdd3f297	-0.10349005
149	0x3dbf93be	0.093543515
150	0x3d4f3ba3	0.050593983
151	0x3e570f56	0.21001944
152	0x3d554bfa	0.05207441
153	0xbe781e0b	-0.2423021
154	0x3e1468ae	0.14493057
155	0xbd872f44	-0.06600812
156	0x3e7f924c	0.24958152
157	0x3d7e39e1	0.062066916
158	0xbe1a4037	-0.15063559
159	0x3dc0079d	0.09376452
160	0x3def0429	0.11670715
161	0xbe46b218	-0.19403875
162	0xbdf42d4b	-0.119227014
163	0xbe862f2f	-0.26207873
164	0xbc2d39c8	-0.010572858
165	0xbce15a0a	-0.027508754
166	0xbde3f1e9	-0.11130125
167	0x3e20e41a	0.15712014
168	0xbe13fe9e	-0.14452597
169	0xbdd751b5	-0.10513631
170	0x3def84a6	0.116952226
171	0x3df88183	0.121340774
172	0x3d3a1aad	0.045435596
173	0x3db9388c	0.090439886
174	0xbe14d0a2	-0.14532712
175	0xbe136916	-0.14395556
176	0x3e1450c3	0.14483933
177	0xbdcecbef	-0.10097491
178	0xbbff8b36	-0.0077985777
179	0xbbc50b80	-0.006013334
180	0x3da4b3dc	0.08042118
181	0xbda5df9e	-0.08099292
182	0xbe72aeed	-0.23699541
183	0x3c773d06	0.015090233
184	0xbd8ff638	-0.070293844
185	0x3ddf4ff2	0.1090392
186	0x3dc383a9	0.095465966
187	0x3e675e9c	0.22594684
188	0x3e0a5d2b	0.13512103
189	0x3d2f01be	0.04272627
190	0x3e4e95a0	0.20174265
191	0xbe6a9dc8	-0.22911751
192	0x3e29cc33	0.16581802
193	0xbdccdec1	-0.100034244
194	0x3de28517	0.11060541
195	0x3b244684	0.0025066445
196	0x3e23bb4d	0.15989418
197	0x3d2494b7	0.040180888
198	0xbe80beca	-0.2514556
199	0x3e1c36f7	0.15255342
200	0x3e396fc2	0.18109038
201	0x3e313ae7	0.17307626
202	0xbe0c8d44	-0.13725764
203	0xbe01989f	-0.12655877
204	0xbe60cf76	-0.2195414
205	0xbd0f904b	-0.035049718
206	0xbe023eca	-0.12719265
207	0x3e3540b1	0.17700459
208	0x3e821b31	0.2541137
209	0xbd0437c5	-0.03227975
210	0xbb5cbe91	-0.0033682922
211	0xbd77fc8f	-0.060543593
212	0x3e47e26b	0.19519965
213	0xbddfb1a0	-0.10922551
214	0xbe3cfb73	-0.18455295
215	0xbdf5fde3	-0.12011316
216	0x3e22024c	0.15821189
217	0xbd46defd	-0.048552502
218	0xbda1db85	-0.07903198
219	0xbe6638da	-0.22482625
220	0xbcddd9d8	-0.027081415
221	0xbe20058b	-0.15627114
222	0x3b03bb08	0.0020100493
223	0x3e38cc2f	0.1804664
224	0xbe0634ab	-0.13106029
225	0x3e81b93f	0.25336644
226	0x3e20243b	0.15638821
227	0x3de5019e	0.11181949
228	0x3e32d790	0.17465043
229	0xbe31fe8d	-0.1738226
230	0xbc80109a	-0.015632916
231	0x3d5db6a4	0.054129258
232	0xbe8505ea	-0.25981075
233	0xbe2dcc2e	-0.1697242
234	0xbe273c46	-0.16331586
235	0x3e0a526d	0.13508005
236	0x3e41c235	0.1892174
237	0x3dec88a0	0.11549497
238	0x3d509198	0.0509201
239	0xbe1b9a0e	-0.15195486
240	0x3e56fed0	0.20995641
241	0xbe45923c	-0.19294065
242	0xbe3f7df8	-0.18700397
243	0xbe5cb81b	-0.21554606
244	0x3d5636e7	0.052298453
245	0xbd1701d2	-0.03686697
246	0xbe41a0c4	-0.18908983
247	0x3e4f3f95	0.20239098
248	0xbe115b71	-0.14195038
249	0xbe315b50	-0.17319989
250	0xbc24c2af	-0.010056182
251	0x3d0c60f5	0.034272153
252	0x3ce107b1	0.027469488
253	0xbe3c9f15	-0.1842006
254	0xbe05fdca	-0.13085094
255	0xbe65043d	-0.22364898

arith.constant8 f4 [3, 24]
0	0xbeb63b19	-0.35591963
1	0x3ea84e13	0.32872066
2	0x3e93a776	0.288387
3	0xbda7cd0c	-0.081934065
4	0x3eaf4926	0.34235495
5	0x3ebbf882	0.36713034
6	0xbe5fa181	-0.21838953
7	0xbd1bf3da	-0.03807435
8	0x3e9d94cb	0.30777583
9	0xbe8e1459	-0.277499
10	0xbe9b07be	-0.30279344
11	0x3ea22c0d	0.31674233
12	0x3eb050e4	0.34436715
13	0xbd86eea0	-0.06588483
14	0x3ecf04f3	0.40433463
15	0xbe8e0372	-0.27737004
16	0x3ebc6dae	0.3680243
17	0xbeb048cb	-0.34430537
18	0x3eb75d8e	0.35813564
19	0x3ee730eb	0.4515451
20	0x3ec87fec	0.39160097
21	0x3ed6906e	0.41907066
22	0xbecab238	-0.39589095
23	0x3e9be6e8	0.30449605
24	0x3d886af7	0.06661027
25	0xbca36355	-0.019944826
26	0x3e934236	0.28761452
27	0xbeae1bd9	-0.3400562
28	0x3eaede40	0.34153938
29	0x3ebb3d4f	0.36570212
30	0x3cdee5b3	0.027209138
31	0xbeda39bf	-0.42622182
32	0x3e9d1155	0.30677286
33	0x3d8aba91	0.06773866
34	0x3e46ca68	0.1941315
35	0x3ea1d246	0.31605738
36	0x3eafdbc5	0.34347358
37	0xbecfc57d	-0.4058036
38	0x3ece591a	0.40302354
39	0x3caa3bcb	0.020780465
40	0x3ebc6d12	0.36801964
41	0x3da8ca9c	0.0824177
42	0x3eb6e345	0.35720268
43	0x3ee655c4	0.4498731
44	0x3ec828e2	0.3909369
45	0x3ed5e99c	0.41779792
46	0x3e8eca51	0.2788873
47	0x3e9b623e	0.3034839
48	0x3e5d0d62	0.21587136
49	0xbec9d927	-0.39423487
50	0x3e9326a3	0.28740415
51	0xbeb54e1a	-0.3541115
52	0x3eae62ec	0.34059846
53	0x3ebb0318	0.36525798
54	0xbeb7d9e3	-0.35908422
55	0x3ea5dedf	0.323966
56	0x3e9cb5f5	0.30607572
57	0xbeb1a293	-0.34694347
58	0x3c1ce4ef	0.009576066
59	0x3ea1a72f	0.31572863
60	0x3eafc46f	0.34329554
61	0x3d8209d8	0.06349534
62	0x3ecdf810	0.4022832
63	0xbd969ea8	-0.0735448
64	0x3ebc0d83	0.3672906
65	0x3c95a9ab	0.01826938
66	0x3eb6a4fd	0.3567275
67	0x3ee64fdc	0.44982803
68	0x3ec7f7db	0.39056286
69	0x3ed6369e	0.41838545
70	0xbed2549d	-0.4108018
71	0x3e9b1b83	0.30294427

arith.constant9 f4 [24, 16]
0	0x3e1e0d21	0.15434696
1	0xbe391a37	-0.18076406
2	0xbd64f997	-0.05590209
3	0x3bd4797d	0.006484209
4	0xb7ddde01	-2.6448632e-05
5	0xbda92ece	-0.082608804
6	0xbc3f3718	-0.01167085
7	0x3d126249	0.035738263
8	0x3e12ac17	0.1432346
9	0xbceb125d	-0.02869528
10	0xbe87fecc	-0.26561582
11	0xbd74fc41	-0.05981088
12	0x3d199761	0.03749788
13	0x3dc32fc1	0.09530593
14	0x3e77be71	0.24193741
15	0xbe98ecc5	-0.2986814
16	0xbc826d3a	-0.015921224
17	0x3c6783b0	0.014130518
18	0xbc670378	-0.014099948
19	0xbccd011c	-0.025024943
20	0x0b82ca19	5.037826e-32
21	0xbc60c2fb	-0.013718362
22	0xbc69a7a1	-0.014261157
23	0xbc42c530	-0.0118878335
24	0xbc5dccae	-0.013537569
25	0xbc680a18	-0.014162563
26	0xbc8a7abf	-0.016904233
27	0x3bdd6f6c	0.0067576673
28	0xbc4017b4	-0.011724401
29	0xbc5121dd	-0.012764421
30	0xbc61b08c	-0.013775002
31	0xbc3a8906	-0.011385208
32	0x3e87132b	0.26381811
33	0x3ead0741	0.33794597
34	0x3de8069e	0.11329387
35	0x3ec045d9	0.3755329
36	0xbc4a5854	-0.012350161
37	0xbe0de0c3	-0.13855271
38	0x3eb8ebe8	0.36117482
39	0xbe592267	-0.2120453
40	0x3eb9b5fc	0.36271656
41	0x3e1e59f6	0.15464005
42	0xbe444a10	-0.19168878
43	0xbe402c94	-0.18767005
44	0x3ebaf094	0.36511672
45	0x3e8c57c5	0.27410713
46	0x3ebff698	0.37492824
47	0x3f0f08f9	0.55873066
48	0xbe281cf0	-0.16417289
49	0x3d757d10	0.059933722
50	0xbcb33307	-0.021874918
51	0xbbcdfc63	-0.0062861904
52	0xbc0d7ef5	-0.008636226
53	0x3d928c19	0.07155628
54	0xbdb9657d	-0.090525605
55	0xbdc5ead2	-0.09663929
56	0xbdc3a4ba	-0.095529035
57	0x3e8badb5	0.27280965
58	0x3e0681ac	0.13135403
59	0xbe1fb8bc	-0.15597814
60	0xbe869057	-0.26281998
61	0xbce7e201	-0.02830601
62	0xbde34e81	-0.11098958
63	0x3de87273	0.113499545
64	0xbdf0f3a9	-0.117652245
65	0x3ef6e506	0.48221606
66	0x3d2aa830	0.041664302
67	0x3eb9a6a8	0.3625996
68	0xbb5960e9	-0.0033169335
69	0x3ea238a7	0.31683847
70	0x3e550e13	0.2080615
71	0xbe3c2bbc	-0.18376058
72	0x3e3b0c30	0.18266368
73	0x3d71611d	0.058930505
74	0x3ed7ddad	0.42161313
75	0x3e17ed88	0.14836705
76	0xbe7c0cc5	-0.24614246
77	0x3e0d3b20	0.13792086
78	0x3dcb12c1	0.099156864
79	0x3ee52668	0.44755864
80	0x3e6e0171	0.23242737
81	0x3ee90587	0.4551203
82	0x3cc2c2cd	0.023774529
83	0x3f04ba36	0.51846635
84	0x3a1f9cda	0.00060887414
85	0x3edbaaca	0.4290374
86	0xbe2e13ca	-0.16999736
87	0xbf1f2485	-0.621651
88	0x3db83144	0.08993772
89	0x3e8c610e	0.27417797
90	0xbc3779da	-0.011198485
91	0xbd6435cd	-0.05571537
92	0xbdf458ac	-0.11930975
93	0x3ee38c90	0.44443178
94	0x3e482198	0.19544065
95	0x3dc8fd67	0.09813958
96	0xbe9852bc	-0.2975062
97	0x3c242fea	0.010021189
98	0x3cfee4ff	0.031115053
99	0x3e7344fe	0.23756787
100	0xbc11333f	-0.008862316
101	0x3c04f49e	0.008114962
102	0xbd7bd9b1	-0.061486904
103	0x3e7a26f4	0.24428922
104	0xbe287520	-0.1645093
105	0x3d24f040	0.040268183
106	0xbe205614	-0.15657836
107	0x3e7d7610	0.24752069
108	0x3cd6a686	0.026202451
109	0xbe3596ea	-0.1773335
110	0x3d30ddfd	0.043180455
111	0x3d9e066b	0.07716068
112	0xbd988129	-0.0744651
113	0xbdbedaa6	-0.09319048
114	0xbe6194a6	-0.22029361
115	0xbe3f280a	-0.18667617
116	0xb189a5ad	-4.00606e-09
117	0x3d4e717c	0.050401196
118	0xbe32d6f8	-0.17464817
119	0xbe106580	-0.14101219
120	0x3e3c5300	0.18391037
121	0x3e401abd	0.187602
122	0xbd9e2bd6	-0.07723205
123	0x3df50157	0.11963146
124	0x3da2c678	0.07948011
125	0x3d70bd9f	0.058774587
126	0x3e4bffb3	0.1992176
127	0x3e5488b9	0.2075528
128	0x3ee97575	0.45597425
129	0x3f0bcb72	0.5460731
130	0x3e8724c3	0.26395234
131	0x3cd75f10	0.026290447
132	0x3a28bf40	0.000643719
133	0x3eb5b22e	0.35487503
134	0x3ecdb508	0.40177178
135	0xbf250c36	-0.6447176
136	0xbde8676f	-0.113478534
137	0x3e5dfb68	0.21677935
138	0x3eb20d37	0.34775707
139	0x3d90d9e5	0.0707281
140	0xbe2a29a2	-0.16617444
141	0x3da764b3	0.08173504
142	0x3ec4e4e7	0.3845589
143	0x3ca5bb52	0.020230923
144	0xbe198297	-0.14991222
145	0x3e64af32	0.22332457
146	0xbda229eb	-0.079181515
147	0xbe8e917e	-0.27845377
148	0x38e8ce21	0.000111010166
149	0x3b81ea00	0.0039646626
150	0x3c8e57ce	0.017375853
151	0x3dc3cc7c	0.09560487
152	0xbb84c6f1	-0.004052036
153	0xbd8b1813	-0.06791701
154	0xbd8f9ed1	-0.07012714
155	0x3e84d3ac	0.25942743
156	0xbdb031a5	-0.08603219
157	0x3e48251b	0.19545405
158	0x3d4ee92d	0.050515343
159	0x3dae2889	0.08503825
160	0xbdf3906f	-0.11892783
161	0xbd8c065b	-0.0683715
162	0xbca8f1c6	-0.020623099
163	0x3e23cdeb	0.1599652
164	0x9eb35541	-1.8987622e-20
165	0x3d2939de	0.041314952
166	0xbd104de4	-0.035230532
167	0xbdbc42b9	-0.09192414
168	0x3d3a9ad0	0.045557797
169	0xbd336670	-0.043798864
170	0xbd0afa0e	-0.033929877
171	0x3e70d032	0.2351692
172	0x3d1bcd29	0.038037453
173	0x3d978eaa	0.07400258
174	0xbcaea059	-0.021316694
175	0xbdc72c22	-0.097252145
176	0x3aea041d	0.0017854009
177	0xbd06db83	-0.032924186
178	0x3f005a96	0.50138223
179	0x3e972f49	0.29528263
180	0x3a1d5902	0.0006002338
181	0x3e0815b3	0.13289528
182	0x3ea1c925	0.31598774
183	0xbf1e8401	-0.6192017
184	0xbbf65ebc	-0.0075186174
185	0x3f0b867f	0.545021
186	0x3ee8e08c	0.45483816
187	0xbd458588	-0.04822305
188	0x3dad39a2	0.08458258
189	0x3ec69b07	0.3879015
190	0x3e49b7ee	0.1969907
191	0x3c75b7f4	0.014997471
192	0xbd0a9e6f	-0.0338425
193	0x3b8cd835	0.004298235
194	0x3d9cf2e2	0.07663514
195	0x3f0cea4e	0.5504502
196	0x3a2a13af	0.00064879184
197	0x3e9c1fdd	0.3049306
198	0x3d84b954	0.06480661
199	0xbe07fd60	-0.13280249
200	0xbe1a17b5	-0.15048106
201	0xbcd95989	-0.026531952
202	0x3eb87842	0.3602925
203	0x3c130e27	0.008975542
204	0x3e712918	0.23550832
205	0xbe06b0d5	-0.13153394
206	0x3f117359	0.5681663
207	0x3ec7487d	0.38922492
208	0xbe8aa17d	-0.2707633
209	0xbcd51bd3	-0.026014244
210	0xbd9b197f	-0.07573222
211	0xbdd8dc93	-0.10588946
212	0xbae52239	-0.0017481513
213	0xbe3ca2a9	-0.18421425
214	0xbdc70795	-0.09718243
215	0x3e0e0bb6	0.13871655
216	0x3c2b48f0	0.010454401
217	0x3ba41b30	0.005008124
218	0xbd0cf255	-0.034410793
219	0x3e53793d	0.20651717
220	0x3e87072f	0.26372668
221	0xbccffc64	-0.025388904
222	0x3d50c98d	0.050973464
223	0xbe18733b	-0.14887707
224	0x3e707f09	0.2348596
225	0x3e8a5f3a	0.27025777
226	0x3f0f49c3	0.55971926
227	0xbe0279d1	-0.12741782
228	0x3b1f1fb4	0.002428037
229	0x3e97f59d	0.29679576
230	0x3e9bb256	0.30409497
231	0xbe84703e	-0.25866884
232	0xbd48755b	-0.048940044
233	0xbbfa62d9	-0.007641178
234	0x3dc797f9	0.09745783
235	0x3d8eb90e	0.0696889
236	0x3d68f998	0.056878656
237	0x3c484119	0.012222552
238	0x3e9b97b2	0.30389172
239	0x3ec0409a	0.37549287
240	0xbd562e1e	-0.052290075
241	0xbc82f83b	-0.015987506
242	0xbc5b22eb	-0.013375024
243	0x3e50d9ad	0.20395537
244	0x2d2c0181	9.777402e-12
245	0xbc30677d	-0.010766861
246	0xbc587871	-0.013212309
247	0xbbb8123b	-0.0056174076
248	0xbbc69499	-0.0060601947
249	0xbc5a9e46	-0.013343399
250	0xbda6c9dd	-0.08143971
251	0x3d4d7fe6	0.0501708
252	0xbe342a99	-0.17594375
253	0xbc32c8e4	-0.010912154
254	0xbc9702eb	-0.018434009
255	0x3dfcb2d2	0.12338795
